2_k-gas/Assginment/model/model.pth (torch, 7499 bytes, 7 tensors)

fc1.weight f4 [50, 17]
000000 01 6f 10 bd bf 69 31 bd f0 ba 01 bd e3 14 d8 bd
       -0.03526211 -0.043313738 -0.031672418 -0.10550859
000010 ad 4b 43 3d c1 05 86 3d 27 7e 33 be 11 8b 8b bd
       0.047679592 0.06544066 -0.17528592 -0.06813634
000020 f7 d1 1f be 36 78 78 bd 52 ee 83 be 87 f5 5b bd
       -0.15607439 -0.060661517 -0.2576776 -0.05370095
000030 2b d7 4b 3e 1c 37 64 3e ea 33 cc 3e de 6c 6d 3e
       0.19906299 0.22286648 0.39883357 0.23186061
000040 72 3b 1f 3e 2f c4 d4 bd 9d 70 91 3c 33 c1 8e bc
       0.1555002 -0.103889816 0.017753894 -0.017426109
000050 6d ad ed bd 1a cb 64 3d 0e 55 15 be 60 98 ec bd
       -0.11605344 0.055857755 -0.14583227 -0.11552501
000060 0f 2f ad be 0b ee a4 be 8b 8d 31 be ef a2 5f be
       -0.33824965 -0.32212862 -0.1733915 -0.21839498
000070 84 88 1a be c0 36 b7 be 2c 34 b6 be 9e 5e 71 3e
       -0.15091139 -0.35783958 -0.3558668 0.2357125
000080 79 67 ee 3d 09 92 9d bd b2 be 98 be 69 4e b4 bd
       0.116408296 -0.076938696 -0.2983299 -0.08804018
000090 0c 8b 6e 3c d7 46 02 be 55 fb 48 3e 87 51 af 3d
       0.014559519 -0.12722336 0.19627126 0.08560472
0000a0 e0 04 8c be ed 67 9b be 13 d5 05 3e cd e1 07 3e
       -0.2734747 -0.30352727 0.13069563 0.1326973
0000b0 27 c0 a6 bd 19 6c b2 3d e1 7a db 3d a7 61 0c 3e
       -0.08142119 0.08712024 0.10716797 0.13709126
0000c0 00 61 e3 bd 99 90 32 3c a4 2f 10 3e 5d ce 5a bd
       -0.11102486 0.010898733 0.14080673 -0.05341946
0000d0 1b e8 83 3d fe fe 45 be 94 8d f8 3d 92 10 58 3e
       0.06440755 -0.19335553 0.12136379 0.21100071
0000e0 a9 c8 46 bd 1b 34 8e 3c 61 6b 05 3c 3c 89 8e 3c
       -0.04853121 0.01735883 0.008143277 0.017399423
0000f0 00 49 0b be 6b 36 b6 bd 49 06 55 be 13 e0 2e be
       -0.13602066 -0.08897098 -0.20803179 -0.17077665
000100 44 53 04 3e 90 31 a2 bd 1e 62 65 3e f6 52 96 be
       0.12922388 -0.079196095 0.2240071 -0.2936017
000110 f8 21 70 be 4d 78 df bd 46 a4 b1 bd 4e 1e 9a bc
       -0.23450458 -0.109116174 -0.08673911 -0.018813279
000120 6b a4 f5 3d 8b 21 0f bd e9 c8 50 3d 41 93 91 3e
       0.11994251 -0.0349441 0.050972853 0.28432658
000130 ab 4a b3 3d aa 02 c5 bd 36 f0 ea bd f7 04 1c 3c
       0.08754476 -0.09619649 -0.11471598 0.009522668
000140 34 72 7b 3e a5 83 3b 3e db 50 ce 3e e9 c9 7b 3e
       0.24555284 0.18311937 0.40296063 0.24588741
000150 9f 4c d5 bc 27 f6 91 be 0f 42 85 bc 42 20 de bb
       -0.026037512 -0.28508112 -0.01626685 -0.006778748
000160 e8 4e 99 be 7b 0e 99 3c ab a3 cc bd 01 0d 82 be
       -0.29943013 0.018683663 -0.09992155 -0.25400546
000170 e4 85 61 be ff 2e 53 be 60 f4 9b be 98 8f 41 be
       -0.22023731 -0.20623396 -0.3045988 -0.18902433
000180 80 52 4a be c7 2b 69 be d9 2e 3e bd 71 20 a4 3d
       -0.19758034 -0.22770606 -0.046431396 0.08014
000190 7c 2e 66 bd 80 44 31 3e 32 1d 47 3d 87 a5 35 3d
       -0.056196675 0.17311287 0.048611827 0.044347312
0001a0 8f 39 0a be 45 c3 57 be 80 28 bf 3e 66 fc 8b 3d
       -0.1349852 -0.21070583 0.37335587 0.068352506
0001b0 f4 eb a1 3d eb 38 39 bd f0 c3 58 be 43 ec 0b be
       0.079063326 -0.045220297 -0.21168494 -0.13664345
0001c0 e6 7e 14 be ed e6 a0 bc f5 bf 00 bd ce ff 00 3e
       -0.14501533 -0.019641364 -0.031433064 0.12597582
0001d0 9d fb b0 3d 69 79 9b 3e a6 31 ea 3c 40 26 8c 3e
       0.086417414 0.30366066 0.028588127 0.27372932
0001e0 19 95 e7 bd cb e7 17 be e3 28 c5 3e a3 d8 71 3e
       -0.11307735 -0.14834516 0.38507757 0.23617797
0001f0 80 57 b5 bd 4b 63 a1 3e e6 cd 21 3e 52 19 20 be
       -0.0885458 0.31521067 0.158012 -0.15634659
000200 0f 63 ed bd 8c 30 6f 3d 3d 72 2f 3e d4 f0 d6 bd
       -0.115911596 0.058395907 0.17133422 -0.10495153
000210 47 13 61 be 66 58 9b 3e 89 db a7 3d db 3e 50 3d
       -0.2198001 0.3034088 0.0819617 0.050841194
000220 18 57 95 be 12 0d d7 bd 3b 9e 08 bc c9 b8 80 3d
       -0.2916801 -0.1050054 -0.008338506 0.06285245
000230 c9 84 7f bc 07 59 bb bd 56 d8 37 be 10 17 04 bd
       -0.015595623 -0.0914784 -0.1795362 -0.032248557
000240 d0 24 95 be c9 63 db be af 14 03 3e 3c bb af 3d
       -0.29129648 -0.42849568 0.12800859 0.08580634
000250 c3 2c 07 3c 11 22 27 3e 94 55 ae 3d 50 65 69 bd
       0.008250418 0.16321589 0.085124165 -0.056981385
000260 05 b8 99 bd dd 24 b3 bd 1a 19 98 bd 86 22 fb 3d
       -0.07505802 -0.087472655 -0.07426663 0.12262444
000270 32 3b 9e bd 69 e2 9f 3e f3 6a 96 bd ef 5e d1 3e
       -0.07726134 0.31227425 -0.07344618 0.4089274
000280 5c 96 4c 3d ad 2d e7 3d 12 4c 57 be 93 df 1f 3e
       0.04994808 0.11288009 -0.21025112 0.1561263
000290 24 bb f2 bd 30 25 38 bd 9d 8d 73 be 60 80 a7 3e
       -0.118521005 -0.04495734 -0.2378449 0.3271513
0002a0 1e 23 35 be d5 7f 06 3d ed 1d a4 3e aa a6 d0 bd
       -0.17689177 0.032836754 0.32054082 -0.10188039
0002b0 d8 34 03 be 40 46 92 3d fc 8d 4f bb 17 42 b2 3d
       -0.12813127 0.071423054 -0.0031670323 0.08704012
0002c0 40 c7 b8 3e 40 2a 1e be cc 08 87 be 6c 43 5c ba
       0.36089516 -0.15445805 -0.263739 -0.00084023806
0002d0 84 1d 6b be be 35 59 3e 9a 05 02 3e 88 18 dd 3d
       -0.22960478 0.21211907 0.1269745 0.107956946
0002e0 8a 8d b0 3e 2b 1f 70 3d 20 45 8a 3d 5f a2 88 be
       0.34482986 0.058623474 0.06751466 -0.2668638
0002f0 e4 47 bc 3c cc a4 6e be 8a ea 60 3e 0a 7d 96 3e
       0.022983499 -0.23305053 0.2196447 0.29392272
000300 85 c9 25 3e 53 16 1a 3e d7 24 3c 3e 29 96 75 bd
       0.16190155 0.15047579 0.18373428 -0.059957657
000310 97 f1 01 3e 38 72 be be 80 57 0a bd 36 67 e7 3b
       0.12689815 -0.37196517 -0.033774853 0.0070618642
000320 c7 b3 89 3d 9e bd 4d 3d 0f d8 0d 3e 31 7f 77 ba
       0.06723743 0.05022966 0.13851951 -0.0009441255
000330 5a 81 b4 bc fb 50 01 bd 06 ca 79 bd 5a 42 36 be
       -0.022034336 -0.03157137 -0.06098368 -0.17798749
000340 9c f9 68 bc 99 4c 28 bd ec 0c 60 3e 85 d8 81 be
       -0.014219668 -0.041088674 0.2187993 -0.25360504
000350 24 1a 76 bd 12 8a 68 3e 50 54 24 3e bc 13 a6 3d
       -0.060083523 0.2270892 0.16047788 0.08109233
000360 bd 63 a6 bd 86 57 ac 3e 5f c8 9c 3e 7d d7 a7 bd
       -0.08124492 0.33660525 0.3062162 -0.08195398
000370 c0 05 aa 3e ea 42 0c be 01 16 e6 3d 26 df bc bd
       0.33207512 -0.136974 0.11234666 -0.0922225
000380 52 40 61 bc 1f 71 bc bb e1 39 b8 3d 1b 8e 95 3d
       -0.013748245 -0.00575079 0.089954145 0.07302495
000390 b1 3d e4 bb 43 d4 75 3e b4 7a f6 3d 7f ee 35 be
       -0.006965362 0.24006753 0.120351225 -0.1776676
0003a0 56 79 ed 3d 4c 56 0f 3d d5 57 0d be e7 08 d2 3c
       0.115954086 0.03499441 -0.13803037 0.02563901
0003b0 4f d8 5a 3e 58 a8 20 3e 08 d3 6c be 6f b0 8a 3d
       0.21371578 0.15689218 -0.23127377 0.06771933
0003c0 d1 36 2a be 32 66 02 3e d7 e7 a8 3d 1f 79 9c bd
       -0.16622473 0.12734297 0.08247345 -0.076402895
0003d0 26 5b 74 bd 52 fc 81 be 1b cf 2d be 26 11 63 be
       -0.05965724 -0.25387818 -0.16973536 -0.2217451
0003e0 4d cb 48 bd 19 86 ac bd 92 e2 2e 3e 01 aa 39 be
       -0.049022008 -0.084240146 0.17078617 -0.18131258
0003f0 e3 6a fe 3d 6e 9d 5b 3e f4 a8 81 be 8c 2b 95 3b
       0.12422731 0.21446773 -0.25324214 0.0045523103

fc1.bias f4 [50]
000000 d9 56 65 3d c6 f6 64 3e c8 06 2b be aa 7a 5c 3e
       0.055991028 0.22359762 -0.16701806 0.21531168
000010 16 89 44 bd 6a 17 33 be f1 57 4f 3e 3f 7c 00 be
       -0.047982298 -0.174894 0.2024839 -0.12547396
000020 69 c8 76 3c 00 f2 7a 3c 3b 6f c8 bd ae 0a f3 3d
       0.01506243 0.015316486 -0.097868405 0.11867271
000030 49 57 1e be 9e 96 de 3d fb 34 e2 bd d2 8a ad 3d
       -0.15462984 0.10868572 -0.110452615 0.084737435
000040 19 12 2a be 81 d7 0c be 27 16 d4 bd e7 dd 4c be
       -0.16608466 -0.13754083 -0.10355788 -0.20006524
000050 d6 0e 12 be eb 9d 03 3e d8 3a e6 3c 0f 8e 07 be
       -0.14263472 0.1285321 0.02810423 -0.13237785
000060 ea 53 9a 3d bf dc 10 be c0 fb 3c 3e 29 4c 68 3d
       0.075355366 -0.14146708 0.1845541 0.056713257
000070 78 73 0d 3e d9 18 64 3e 20 2a 21 3e e6 80 23 be
       0.13813579 0.22275104 0.15738726 -0.1596714
000080 cf ca 28 bd d1 ca 4a 3e d7 01 bd bd 7a 48 0e bd
       -0.04120904 0.19803931 -0.092288665 -0.034737088
000090 04 fa 5d be 58 66 06 be 2d 8f 82 bd 57 37 11 be
       -0.21677405 -0.13124979 -0.06374965 -0.14181267
0000a0 b8 9c 75 be d0 6f 3d be 53 f8 5e be 4c 54 32 3e
       -0.23985565 -0.18499684 -0.21774416 0.17414969
0000b0 4d 2a 48 3e c0 bf 60 be 23 7b 18 be 87 df 29 3e
       0.19547386 -0.21948147 -0.14890723 0.16589175
0000c0 a9 36 4e 3e 0c ad 02 bd
       0.20138039 -0.03190331

bn1.weight f4 [50]
000000 ba a2 a7 3f e0 be b2 3f 53 b9 ab 3f 5d e5 89 3f
       1.3096535 1.39645 1.3415931 1.0773121
000010 8b a5 ae 3f 3a ad b4 3f 28 3e b1 3f ed a0 a3 3f
       1.364427 1.4115365 1.3847094 1.2783486
000020 21 95 bc 3f d3 77 91 3f 3b 41 ae 3f 74 6e b2 3f
       1.473301 1.1364692 1.3613657 1.3939958
000030 f3 8c ab 3f 02 a7 73 3f 39 ee 9c 3f 10 40 b0 3f
       1.3402389 0.9517671 1.22602 1.376955
000040 c5 25 b9 3f 40 73 a7 3f dc 51 a9 3f a8 90 a8 3f
       1.4464651 1.3082047 1.3228106 1.3169146
000050 3b c4 a5 3f 20 43 ab 3f 01 d1 90 3f 1d 6c a0 3f
       1.295051 1.337986 1.1313783 1.2532994
000060 61 00 b1 3f de 7d b5 3f 07 54 bd 3f a5 fb af 3f
       1.3828241 1.4179037 1.4791268 1.3748671
000070 af 5d ad 3f f2 ea 87 3f 18 7c b5 3f 7e d3 b6 3f
       1.3544215 1.0618575 1.4178495 1.4283292
000080 ac 52 84 3f 6e 48 b2 3f 05 aa ae 3f 1f 4a a8 3f
       1.033773 1.3928354 1.3645636 1.314762
000090 36 b3 a9 3f f1 79 b0 3f dd b6 a9 3f c5 96 ae 3f
       1.3257816 1.3787214 1.325893 1.3639761
0000a0 25 96 ae 3f 4c fb a6 3f c1 f1 ad 3f cf 00 6b 3f
       1.363957 1.304544 1.3589402 0.9179811
0000b0 10 28 ac 3f 20 5f ae 3f 58 47 b9 3f ee a9 b4 3f
       1.3449726 1.362278 1.4474897 1.4114358
0000c0 db 45 96 3f 5a 34 ac 3f
       1.1740068 1.3453476

bn1.bias f4 [50]
000000 57 8d b5 3e 50 b4 08 3f b7 f5 c8 3e 32 02 97 3e
       0.35459396 0.53400135 0.39249966 0.29493862
000010 15 cc d5 3e db a9 f0 3e 26 5b dc 3e f3 b3 b0 3e
       0.41757265 0.4700459 0.4303829 0.3451229
000020 7c 5b 1d 3f bb 56 3e 3e 12 a4 d6 3e 70 e1 e0 3e
       0.6146772 0.18587773 0.4192205 0.43921995
000030 94 3f bc 3e 65 31 b5 bd f2 f3 b5 3e 80 c6 c9 3e
       0.36767256 -0.08847312 0.35537678 0.39409256
000040 32 b5 08 3f 4c 06 bd 3e 17 a0 c5 3e c1 7b b0 3e
       0.5340148 0.36918867 0.385987 0.34469417
000050 7c 35 cf 3e 36 38 c3 3e 40 63 93 3e f8 ff 9f bd
       0.40470493 0.38128823 0.2878666 -0.07812494
000060 59 ff c3 3e 29 19 ef 3e a0 21 1a 3f fa 6c ea 3e
       0.38280752 0.46698883 0.6020756 0.45786268
000070 57 07 b8 3e 35 71 e4 bd ad e5 de 3e 2c 42 03 3f
       0.359431 -0.11154405 0.43534604 0.51272845
000080 59 a6 ba bd 5d 5f f9 3e fc 92 c8 3e 26 51 ba 3e
       -0.091137595 0.4870557 0.3917464 0.36390036
000090 05 29 b0 3e 66 67 dc 3e a3 0b b7 3e bd 4c d2 3e
       0.34406295 0.43047637 0.35751066 0.41074172
0000a0 4a a1 ce 3e 45 db ba 3e dc 7c da 3e e5 a0 b8 bd
       0.4035743 0.36495414 0.42673385 -0.09015063
0000b0 32 1b da 3e 61 dd d5 3e fa b5 14 3f d5 5e f0 3e
       0.42598873 0.4177046 0.58090174 0.4694735
0000c0 3e 54 63 3e 07 3f c2 3e
       0.22200105 0.3793871

bn1.running_mean f4 [50]
000000 3e d6 9a c6 24 21 03 c8 e5 6a 24 c6 76 58 5f c7
       -19819.121 -134276.56 -10522.724 -57176.46
000010 9b ae 89 c6 a4 5e 1b c8 c1 f3 87 c6 4e 78 58 c6
       -17623.303 -159098.56 -17401.877 -13854.076
000020 49 3d c8 c7 c3 a9 73 c6 e3 ea b3 c6 e5 df 80 46
       -102522.57 -15594.44 -23029.443 16495.947
000030 00 5e 77 c6 d3 1f 8f 47 9d 6a a6 c7 09 e7 9a 44
       -15831.5 73279.65 -85205.23 1239.2198
000040 3e 55 b0 c6 48 16 f8 c7 2c 7e 3a c7 ed 84 19 46
       -22570.621 -127020.56 -47742.17 9825.231
000050 2f 71 b3 c7 01 27 b8 c7 32 91 f6 c7 71 89 5f 46
       -91874.37 -94286.01 -126242.39 14306.36
000060 e2 6e 19 45 09 f6 33 c6 a0 4b 8d c7 82 a9 b8 c7
       2454.9302 -11517.509 -72343.25 -94547.016
000070 5b 11 81 46 4c eb bf 47 24 30 40 c5 a5 50 34 c7
       16520.678 98262.59 -3075.0088 -46160.645
000080 2f 31 c9 47 f1 0e c1 c7 05 72 4f c6 97 11 b4 c6
       103010.37 -98845.88 -13276.505 -23048.795
000090 c5 5d c5 c5 1d fa 31 c4 37 c4 28 c5 47 37 04 c6
       -6315.721 -711.908 -2700.2634 -8461.819
0000a0 68 fa b0 45 44 48 12 c8 e2 b2 a9 c7 f9 83 ff 47
       5663.301 -149793.06 -86885.766 130823.945
0000b0 1b 2e e0 c5 f2 52 bc c4 e7 b6 bc c7 60 97 44 c8
       -7173.763 -1506.592 -96621.805 -201309.5
0000c0 ed ed 84 c6 46 f0 87 c5
       -17014.963 -4350.034

bn1.running_var f4 [50]
000000 10 68 c4 4d ab 6b 5c 4f 17 8d 06 4e 4f 31 5a 4e
       4.1189427e+08 3.6980436e+09 5.6434835e+08 9.1516614e+08
000010 06 5f 1a 4e e2 9f 94 4f e1 d4 6c 4d d8 bb 08 4e
       6.474797e+08 4.987012e+09 2.4833589e+08 5.73503e+08
000020 f3 f9 2e 4f 48 c9 7d 4c 7f 88 82 4e 74 f6 6d 4c
       2.9356163e+09 6.6528544e+07 1.0949917e+09 6.2380496e+07
000030 ad e0 97 4d cf 29 8e 4e c2 ad d6 4e 0b be fd 4c
       3.185105e+08 1.1925523e+09 1.8008558e+09 1.3303407e+08
000040 01 d4 de 4d 87 0d 79 4f 1e 6d 10 4e 66 75 f0 4c
       4.6730448e+08 4.1784133e+09 6.0576755e+08 1.2606955e+08
000050 ca 35 ed 4e 1b ac db 4e 41 be 5b 4f ce 37 24 4d
       1.9898627e+09 1.8427447e+09 3.6866788e+09 1.7219504e+08
000060 f8 01 bc 4b 2a d0 c5 4b 56 92 c8 4e 48 9a 08 4f
       2.4642544e+07 2.5927764e+07 1.6825167e+09 2.2918124e+09
000070 f0 c9 4c 4c e8 08 3b 4f 6a 02 52 4b db 1b 46 4e
       5.368416e+07 3.137923e+09 1.3763178e+07 8.309286e+08
000080 c2 01 40 4f 75 4d 06 4f 45 74 07 4e bf ea 3c 4e
       3.2213407e+09 2.2532232e+09 5.68136e+08 7.9237523e+08
000090 39 2a b0 4d e0 0f 8c 4d b6 ac 49 4c cc 42 f7 4c
       3.6944464e+08 2.9373133e+08 5.28678e+07 1.2963594e+08
0000a0 44 03 01 4c 5a b6 a2 4f ce 80 ed 4e fa b8 51 4f
       3.381992e+07 5.459719e+09 1.9923208e+09 3.5185608e+09
0000b0 52 18 42 4c 5e 7b 8d 4c b7 ff 36 4f a3 c5 e7 4f
       5.088084e+07 7.417726e+07 3.0702118e+09 7.7769784e+09
0000c0 7e db 30 4c 97 64 9c 4d
       4.6362104e+07 3.2797974e+08

fc2.weight f4 [1, 50]
000000 b9 93 d4 3e d5 1b cb 3e cd a7 a8 3e 49 f3 2f 3e
       0.41518953 0.39669672 0.32940522 0.1718265
000010 99 d1 9f 3e 60 49 07 3f 5e 80 a5 3e 1c 87 64 3e
       0.31214598 0.52846336 0.323245 0.22317165
000020 36 8c ec 3e 6f 62 2c 3e cc d1 9e 3e ed 98 a0 3e
       0.46200722 0.16834424 0.31019437 0.31366673
000030 ef 28 c1 3e ed 4b 8b bd e2 aa 8d 3e 57 f2 91 3e
       0.37726542 -0.06801591 0.27669436 0.28505203
000040 0b 7d d9 3e 24 5c c1 3e b2 43 c7 3e 90 a9 db 3e
       0.42478213 0.3776561 0.38918835 0.42902803
000050 87 d7 94 3e f3 8f e6 3e e2 ea 4a 3e 85 6a 86 be
       0.29070684 0.450317 0.19816163 -0.26253143
000060 17 20 b6 3e 87 20 9e 3e b1 07 de 3e e9 2d bc 3e
       0.35571358 0.3088419 0.43365243 0.36753777
000070 a3 23 84 3e 51 28 29 be 3a 1a a7 3e e2 89 e8 3e
       0.2580844 -0.16519286 0.32637197 0.45417696
000080 d0 36 0c be 19 07 c7 3e 17 84 b1 3e bb df c2 3e
       -0.13692784 0.38872603 0.3467109 0.38061318
000090 36 ab dd 3e d4 e5 8b 3e 26 a3 d4 3e ee 44 a4 3e
       0.43294686 0.27323782 0.41530722 0.3208384
0000a0 28 f2 a7 3e a9 09 c5 3e b7 37 e2 3e dc 9d a4 bc
       0.32801938 0.38483933 0.44183132 -0.020094804
0000b0 4f 8d 87 3e 28 b7 ec 3e a7 9a 0d 3f 11 12 04 3f
       0.26474997 0.46233487 0.55314106 0.5159007
0000c0 41 47 3b 3e 7b b6 c3 3e
       0.182889 0.3822516
